misc/init-100-60-2-phi-100-40-4-rho-100-4-lrelu.pt (torch, 250921 bytes, 19 tensors)

initial.mlp.0.weight f4 [100, 3]
00000000: 9915 fdbd 5f08 a93e d1bf 693e afac 993d
00000010: edf4 723d 7eac fa3e 9f4c 5d3e 31bc 6f3e
00000020: 224c f2bd 912f 963e b611 8ebe 9f3f 1abe
00000030: d9fa 5b3e be2a f1be b528 e5be 21bc e63d
00000040: 65fa a8be c206 7abe ccfb f93e 4b5a ea3e
00000050: 48eb 83bb 5148 c33e 57a7 19bf 8b95 183f
00000060: 3435 4dbe 69bc 663e d980 d5bd e69c 00be
00000070: 4d2e 02bf 7431 b23e c9d7 e4be 573d 18bf
00000080: 115e b3bd 647e 7f3e aa28 633e 7e63 d9be
00000090: d619 8d3e c774 6a3d 1aab afbe f9a0 ca3d
000000a0: aa60 eabe 6a22 c6be 6812 6a3e 42f4 843e
000000b0: b7f1 98be 7ec8 efbe 4a49 463c b140 8b3e
000000c0: ca80 edbd 8e72 0e3f 5906 163e 126f 10bf
000000d0: 3822 9f3e 8b21 a03e 89d4 b9be a74c 1f3f
000000e0: 8e07 223e a8e9 b5bd 1d35 0ebf ed1e 05bf
000000f0: 51ce 003f 3df4 4c3e 4058 f93e b548 e23e
00000100: fcab 7cbe 1ea8 9cbe 9d17 46be 3654 a1be
00000110: 30d1 95be a600 a33d 7a4f 65be cf22 763e
00000120: f1d1 0cbe a067 513e 2df8 ce3e 3213 1b3e
00000130: 4509 b7be 131e 133e 372a 0e3f 47ac 553e
00000140: 0115 c3be 806b 62be e52f d1be 24d2 133f
00000150: c209 54be 13b3 a53e 27a0 16bf 866d ebbe
00000160: 18dd e73e 8a64 893a 5ef1 99be bb07 83be
00000170: 4caa 873d d14e 793e 857d 10bf 5b98 10bf
00000180: 1378 febe eb39 e3bd 2f9f 1a3b 1d3c 603e
00000190: 4efe b23e 8c8d bf3e 4818 24be f86c 49be
000001a0: 2631 4b3e 128b 033d 7e6e 2d3d 8cae 083f
000001b0: e6cc f13d c028 cb3c 6a01 80bd 469d a33e
000001c0: 4464 fb3e 938d fb3e e4c7 f7be 124f 05be
000001d0: eb7e ccbe 5354 bc3e 126c be3e e122 6fbe
000001e0: de6b f1be 6910 e23e 6bce f73e 6754 fbbe
000001f0: 3bdd 02bd f0b8 03bf 1b44 d7bd bee2 ac3e
00000200: 0301 fcbd 2383 f9be 09d1 23bf d612 0abd
00000210: 007f 53be 3754 8dbe 5987 89bd 60ac a6bd
00000220: 1ab5 c63e d002 dbbe a75d 90be b389 cabe
00000230: 30d1 923e 7f08 acbe 51fe c33e 8b82 b03e
00000240: 825c aa3e 8433 1c3f 51e6 d33e 7496 a6be
00000250: d22d 463e e9c0 dbbd c64b d03c b189 523e
00000260: 667e 8dbe 5d17 52be f3bb 1e3f 719d 76be
00000270: e006 0cbf 11f3 893e 1155 f1be 775f 90be
00000280: 214b b1bc e3af c13e c3c2 21bf 0015 df3d
00000290: 1b71 193f 338d f7bd e9e3 103f 9aee 00bf
000002a0: 3ed8 81be 1429 e4be 67cc acbe 0316 66bd
000002b0: b121 963e 8294 a5be 31aa 0c3f 41ae c13e
000002c0: 9f06 f63d 7df0 123f 196e cdbd 45a1 33be
000002d0: 4aeb f33e 76c4 17bf 592a cebe 96c5 b0be
000002e0: 014b a23e 569e 87bd c3f1 65be 107b 01bf
000002f0: 0a82 77be aa29 423e ae6f ffbe 8baf f23e
00000300: f886 183f a816 0cbf d97b 4b3d 85e1 c2be
00000310: e214 04bf 7d50 44be 9b1e 0e3f 5b80 183d
00000320: a2c2 61bd 8ece 0ebe b9dd 21bf e303 3a3d
00000330: ae96 ca3e 97be ae3e efb1 f8bd 34ef 19bf
00000340: 9712 5ebd 28ee a3be 8490 023e 6c3f f2be
00000350: db65 c03e e409 113f 995c 7f3e 6498 e8be
00000360: ff20 0c3f 53ec 8f3e c084 c83e 4356 083f
00000370: f781 cf3d bb11 eabe 0876 be3c 7918 da3e
00000380: 2b3c 87be ed16 65be 3772 903e e187 173e
00000390: 7a93 023f 4b91 d6bd 71d6 bb3e 974b abbe
000003a0: 25c6 143f 5ff2 d63e 19e5 0d3f aba3 903d
000003b0: 657b a83e dbea 003f c42f 00bf 5280 cebe
000003c0: 0340 a8be 4217 89bd f112 053f ebe4 123f
000003d0: 670d 173e 4e01 b73e b491 0dbc 7221 a33e
000003e0: ebe3 c73e b161 59bd 7974 24be e7a7 1e3f
000003f0: e20b 2fbe 527d d03e d2fa 2fbe 5f59 c1be
-0.12357635 0.330142 0.22827078 0.0750364 0.05931561 0.48959726 0.2161126 0.23411633
-0.118309274 0.29333165 -0.27747887 -0.15063332 0.2148241 -0.47102922 -0.4475762 0.112663515
-0.33003536 -0.2441664 0.48824918 0.45772013 -0.0040258504 0.3814111 -0.60020965 0.59603184
-0.20039827 0.2253281 -0.10424966 -0.12559852 -0.508519 0.34803355 -0.4469588 -0.594686
-0.08758176 0.24950558 0.22183481 -0.4245872 0.27558774 0.057240274 -0.34310228 0.09893984
-0.45776874 -0.3869813 0.22858584 0.25967604 -0.29871914 -0.4683265 0.012102434 0.27197793
-0.1159683 0.55643547 0.14650859 -0.5641948 0.31080794 0.3127559 -0.36294964 0.6222634
0.15823194 -0.08882457 -0.55549794 -0.52000314 0.50314814 0.20015045 0.48700142 0.44196096
-0.24674982 -0.30597013 -0.19344945 -0.3150956 -0.2926116 0.07959108 -0.22393599 0.24036716
-0.13751961 0.20449686 0.40423718 0.15144041 -0.3574926 0.14366941 0.55533165 0.208665
-0.38101962 -0.2211132 -0.40856853 0.57742524 -0.20706847 0.32363185 -0.58838123 -0.45981997
0.4528587 0.0010482233 -0.3006696 -0.25591835 0.066242784 0.24346472 -0.5644153 -0.56482476
-0.49700984 -0.11095031 0.0023593416 0.21897931 0.34959644 0.3741268 -0.16024888 -0.19670475
0.19842967 0.03211505 0.0423417 0.5339134 0.118066594 0.024799705 -0.0625027 0.31955928
0.49099934 0.4913145 -0.48394692 -0.13018444 -0.3994058 0.36783084 0.37191826 -0.23353149
-0.4715261 0.44153145 0.48399672 -0.4908783 -0.031949263 -0.5145407 -0.10511037 0.3376674
-0.123048805 -0.48732862 -0.6399084 -0.03370937 -0.20653915 -0.27603313 -0.06715269 -0.08138347
0.38810045 -0.42775583 -0.2819645 -0.3955818 0.28675222 -0.33600232 0.38279966 0.34474596
0.33273703 0.61016107 0.41386655 -0.32536662 0.19353417 -0.10730154 0.025426757 0.20560338
-0.27635497 -0.20516725 0.6200554 -0.24083497 -0.5469799 0.26943257 -0.47135213 -0.28197834
-0.02164227 0.37829503 -0.6318781 0.10892677 0.5993821 -0.120874785 0.56597763 -0.5036408
-0.25360292 -0.4456259 -0.33749697 -0.056173336 0.2932258 -0.32339865 0.5494719 0.37828258
0.120129816 0.57398206 -0.10030765 -0.17541988 0.4764045 -0.5928415 -0.40266684 -0.34525746
0.31697848 -0.06621997 -0.22455506 -0.50578403 -0.241707 0.18961206 -0.49889892 0.47399554
0.59580946 -0.5472207 0.049678657 -0.38062683 -0.51594365 -0.19171329 0.5551545 0.037231784
-0.055117257 -0.13945982 -0.63228947 0.045413863 0.39568084 0.34129784 -0.12143313 -0.6013062
-0.054216947 -0.32017636 0.12750441 -0.47314012 0.3757771 0.56655717 0.24937667 -0.45428765
0.5473785 0.2810999 0.3916378 0.53256625 0.10132211 -0.45716652 0.023249641 0.42596796
-0.26413092 -0.22372027 0.2821214 0.14797927 0.5100628 -0.10476931 0.36687043 -0.33456108
0.58114845 0.4198179 0.554277 0.07062467 0.32906643 0.5035836 -0.50072885 -0.40332276
-0.32861337 -0.06693889 0.5198203 0.5738055 0.14751206 0.35743183 -0.008640695 0.31861454
0.39041075 -0.05307168 -0.16060056 0.6197495 -0.17094377 0.40720612 -0.17185524 -0.37763497

initial.mlp.0.bias f4 [100]
00000000: 8581 dfbe 994a 46be 4fb3 51be 3d90 ca3e
00000010: ed78 113e 98f5 013e 2598 40bd fcaf e4be
00000020: a7d8 1fbd a352 31be 7436 2f3e c4a1 a13d
00000030: afe6 c6be ceeb 80be f85a a0be 7988 953e
00000040: 0990 cc3e 77c6 a1be c0d0 a8be 7c2b 74be
00000050: 7b1f 063f 7b0e 0d3d e44a f1be e9f8 0c3e
00000060: 0ac9 a63c 78cd 0bbf 7fc2 b1bd 098b 043f
00000070: 48ba a3be cb8d e8be 86ce 37be 0928 aabd
00000080: 0b8a 843e 429d 9ebe b87b 0bbf 6d01 bf3c
00000090: aefc c63e 6b5a 99be 08a9 583e 1459 c73e
000000a0: 52f7 e43e 5da1 ca3e 0e57 e33e ef6d b83e
000000b0: d566 b4be 6d0b 39be 8be0 d83e 6b41 0ebe
000000c0: 2646 c8be 28ae 3fbe cb36 d0be 7a76 dabd
000000d0: 8a7e 08bf 75f9 dcbe a537 07bf 12f5 c6be
000000e0: e56f 24be cdf9 70be a17a 063f a1dc 3f3e
000000f0: 0536 8abe 4040 4e3d 4e57 0abf 7c63 0a3e
00000100: 1c72 923e 4caa 733e 84d3 65be 5761 a3be
00000110: 67c1 9a3e 0913 adbe 98c6 46be 2a87 53be
00000120: dc75 94bc 0712 8d3e 511c bebd 124e 96bd
00000130: a0d7 a1bd 6ece 75bc caa6 8ebe 7908 e5bd
00000140: cdee 02bf 275f 2d3e f2c9 79be bef7 76be
00000150: 9b13 1e3e 2058 12be 32d7 97bd 559d 27bd
00000160: 2668 00bf 317a 57be 13bc 0bbe a74b 973e
00000170: 6c4d 07bf 3010 f3be a5f4 eabe 6e84 00bf
00000180: 33d9 74be 93ec df3b 8152 193e 2661 40bc
-0.43653503 -0.19364394 -0.20478557 0.3956317 0.14206286 0.12691343 -0.047020096 -0.44665515
-0.039024975 -0.1731668 0.17110616 0.078921825 -0.38847873 -0.25179905 -0.31319404 0.29205683
0.3995364 -0.3159673 -0.32971764 -0.23844713 0.52391785 0.034437638 -0.4712745 0.13766827
0.020359535 -0.54610395 -0.08679675 0.5177465 -0.3197806 -0.4542068 -0.17949876 -0.08308417
0.25886568 -0.30979353 -0.54485655 0.02331611 0.38864654 -0.29951796 0.2115823 0.3893515
0.4471994 0.39576235 0.44402355 0.36021373 -0.35234705 -0.18070765 0.42358813 -0.13892142
-0.3911602 -0.18718779 -0.40666804 -0.10667129 -0.53318083 -0.4315907 -0.5281928 -0.3885885
-0.1605831 -0.23532791 0.52530867 0.18736507 -0.2699434 0.050354242 -0.54039466 0.13514513
0.28602684 0.23795432 -0.22443968 -0.31910202 0.3022568 -0.33803585 -0.19411695 -0.2065703
-0.018122606 0.27552816 -0.09282745 -0.073391095 -0.07902455 -0.01500283 -0.27861625 -0.11183257
-0.5114563 0.16930829 -0.24393442 -0.24117944 0.15437166 -0.1429143 -0.07414092 -0.040921528
-0.5015892 -0.21042706 -0.13645963 0.29549906 -0.5285251 -0.47473288 -0.45889774 -0.5020207
-0.2391098 0.0068336218 0.14972879 -0.011741912

initial.mlp.2.weight f4 [60, 100]
00000000: 92c6 88bd ef4a 7abe 8813 4e3c 01b1 cdbc
00000010: feec 06bd de8d 83bd 523a 5ebc 376f 1fbe
00000020: c545 f5bc 4f04 5f3d 3eae 133d f6b3 c4bd
00000030: b47c e33d 1bdc ecbc de39 a63d 7b7d 0d3d
00000040: 8e6a 413c 3cc0 f7bd 1ea2 003e d80f c8bc
00000050: f20f ac3d 0fd9 87bd 7773 5c3d a099 8b3d
00000060: 8437 82bd eca5 983d 1e1c 64bd c9ec 0a3d
00000070: 36df 57bb 4884 16bd 2d5e b8bd 2446 9f3d
00000080: 80e8 12bd 35bf 85bd 4b3b 89bb b22f 0ebd
00000090: 19b1 a63d af9c 6dbd 2d67 6a3d af1d bfbd
000000a0: 1653 9b3d 47a1 893d b326 0d3d 0c1d b23d
000000b0: cf7c 09bc f25e a9bd bdde 903d 2d29 d4bb
000000c0: f209 983c 7ed8 d0bd 7a31 a2bc cabc 953d
000000d0: 1295 df3c 54e2 8a3b b280 12bd ea1a 9fbc
000000e0: 83fe 79bd 99f4 c5ba 0563 ac3d db0a 9bbc
000000f0: e12e 5a3d 60b4 8e3d e240 a7bd 5d09 2dbd
00000100: 40ae e2bd 3034 7fbd 7d1e 16be 2948 cdbd
00000110: 68db c93c d5d3 aabd b220 edbd 4bde 08bd
00000120: 7a05 80bd 57ba 123d 9ba0 0fbd fc86 a03d
00000130: a2f2 213d d049 6fbd 95ce 15bd 071a d7bd
00000140: f022 bcbc d29b 09bc 7b66 56bd fa62 48be
00000150: fd03 c5bc e75a 4a3d 5b81 1cbd 4c08 b1bb
00000160: c680 d0bc 7709 cbbc ed1e ba3d 5732 083b
00000170: 6262 373c e0d2 dbbc c961 3ebc 9d90 8bbd
00000180: 5280 3fbd c59a f6bd 10aa 223d 3d38 41bd
00000190: 4f05 f43c 51d0 c53d c9df ae3c ec0e c9bd
000001a0: 863e 983d 0771 94bd e920 a8bd 39c6 0ebe
000001b0: 5dde 233d 031a 013d ec14 a73d edbc 953d
000001c0: 1af1 7c3d 081c 93bd 0f39 dfbc 1723 ac3d
000001d0: 5f66 d3bc b34a 48bd d9da 3ebd 9b16 813d
000001e0: 0e2f a63d 3983 26bd 20b4 9fbc da29 5fbd
000001f0: 711b a63a bad0 99bd 147c c73d 9f36 fb3c
00000200: 0203 7d3d f2e2 a4bd f081 6c3d 7c1d 043d
00000210: 8c86 893d 94d2 d33b 949a 6e3d a75d 513d
00000220: dda1 a73c a5b1 2138 4504 e5bd 7d2e 96bd
00000230: c355 413d c6d5 dbbd bce2 2dbd 218d d7bb
00000240: ccab f3b9 432c efbd 314c 43bd 647e 00bc
00000250: a171 ef3b bfec 253d 1d84 993d 5a1b 833c
00000260: 2758 a53d 400d b93c c98a ccbc 6ab0 a5bd
00000270: 681b 01bd 994e 903b 3346 ad3d 79c8 23bc
00000280: 753c 203c 799d 3ebc b3eb 9cbd a4f6 2fbd
00000290: c403 20bc bdc4 15bd ecb8 1ebd 95f6 623d
000002a0: 212f 713d e555 8f3d f11c 93bd 7bad f33d
000002b0: 86b4 763d 39af fc3c 51d8 3fbd aa66 083d
000002c0: 72f0 d33d ac2c c93c 82b0 e23d e9b8 243c
000002d0: 7619 293d e452 16bd 81cd c13c 1d41 5abd
000002e0: 5f8c 42bd 6614 fbbd e724 c8bc 63da cebc
000002f0: 909a afbd b2f5 05bd 8deb bb3d f86a 8c3d
00000300: c095 bcbb f4f9 76bd c4af 893d 65b2 a1bd
00000310: 740c 3fbd 3190 863d 5e6e 3d3b 03a9 97bc
00000320: 51e6 603d 3383 073e d58f 28bd 893d e83c
00000330: 308e 8cbd a6f7 8cbb ec01 a43d 2c3f dcbd
00000340: ead1 62bd ba6d 333d d645 833d 8130 3e3c
00000350: cc3f d6bc 216d c8bd b92f d63d d868 253d
00000360: 9c13 00ba d277 703c 88ed 1fbe c3b4 c6bc
00000370: 9739 87bc 715e cfbd a6b8 cebc f45d 8ebc
00000380: 0902 63bd 3b58 f0bc b711 a03d 04a0 983d
00000390: f6e3 febd f9b9 79bd f1f8 b4bd b8e9 13be
000003a0: 22f2 18bd 71d7 63bb bf68 44bc f2df 383c
000003b0: 7733 b43d 4f37 c4bc 3453 b63c 9d57 9b3d
000003c0: 0dff 773d e816 8c3d d4d0 21bd e8dd 86bd
000003d0: 3b4a 70bd df4c ccbd 39e2 283a 3b17 d23c
000003e0: bb3d 5b3c b7f6 babc 5cc8 983d ca88 0bbd
000003f0: fae3 533d 63b9 493c 3cd8 cc3c a56f 8cbd
-0.06678499 -0.24442647 0.012577899 -0.025108816 -0.032940857 -0.064235434 -0.013563709 -0.15569769
-0.029940495 0.05444747 0.036054842 -0.09604637 0.111077696 -0.028913548 0.08116506 0.034543496
0.01180519 -0.12097213 0.12561843 -0.024421617 0.08401479 -0.066331975 0.053821053 0.06816411
-0.06358245 0.07453522 -0.055690877 0.033917222 -0.003293944 -0.036747247 -0.090023376 0.0777705
-0.03586626 -0.065306105 -0.0041879765 -0.034713455 0.081392474 -0.058010753 0.057227302 -0.093318336
0.07584207 0.06720214 0.034460735 0.086969465 -0.008391573 -0.082700625 0.07073734 -0.006474635
0.01855943 -0.101975426 -0.019798983 0.07311399 0.027292762 0.004238406 -0.035767265 -0.019422013
-0.061033737 -0.0015102803 0.08417324 -0.018926075 0.053267363 0.069679976 -0.08166672 -0.042245258
-0.11068392 -0.06230563 -0.14660068 -0.10023529 0.024640754 -0.08341185 -0.11578502 -0.03341512
-0.062510446 0.03582224 -0.035065275 0.07838246 0.039538033 -0.058420002 -0.036573965 -0.10503011
-0.022965878 -0.008398967 -0.052343827 -0.19569007 -0.024049753 0.049403097 -0.0382093 -0.0054026004
-0.025452029 -0.024784787 0.0908793 0.0020781958 0.01119289 -0.026833951 -0.0116199935 -0.06814692
-0.046753235 -0.12041239 0.039712965 -0.047172774 0.029787688 0.09658874 0.021346943 -0.09817299
0.074338004 -0.07248121 -0.08209402 -0.13942803 0.040006984 0.031518947 0.081582874 0.07311425
0.06175337 -0.07183081 -0.027248887 0.0840513 -0.02580565 -0.048899364 -0.04659543 0.0630314
0.08114444 -0.040652487 -0.01949507 -0.054483272 0.0012672973 -0.075105146 0.09740463 0.030665694
0.061770447 -0.08051099 0.057741106 0.03225468 0.06715116 0.006464312 0.058252886 0.051114704
0.020462925 3.8550836e-05 -0.11182455 -0.07333086 0.04720093 -0.107341334 -0.04245256 -0.006578103
-0.0004647657 -0.11678364 -0.047680084 -0.007842634 0.007307247 0.04050898 0.07495902 0.016004253
0.08073454 0.022589326 -0.024968522 -0.08090289 -0.031520277 0.004403901 0.08460655 -0.009996527
0.009780039 -0.011634224 -0.076621436 -0.042959824 -0.009766523 -0.036564577 -0.038750574 0.05541094
0.058882836 0.06998805 -0.071832545 0.11898323 0.060230754 0.030845271 -0.046837155 0.033301033
0.10348596 0.024557434 0.110688224 0.010053852 0.041284047 -0.036700144 0.023657562 -0.053284753
-0.04749715 -0.1225975 -0.024431659 -0.02525062 -0.08574402 -0.032705016 0.09175787 0.0685634
-0.0057551563 -0.060296968 0.06722978 -0.07895354 -0.046642736 0.06570471 0.0028904895 -0.018513208
0.054907147 0.13233642 -0.041152794 0.028349655 -0.068630576 -0.004301983 0.08008179 -0.107542366
-0.05537597 0.043805815 0.064098045 0.011608244 -0.026153468 -0.0978644 0.10458321 0.04038319
-0.00048857345 0.014677005 -0.15617955 -0.024256116 -0.016506953 -0.10125435 -0.025234532 -0.017378785
-0.055421863 -0.029338947 0.07815879 0.074523956 -0.12445824 -0.060968373 -0.08836544 -0.14444625
-0.03734029 -0.0034765864 -0.011987864 0.0112838615 0.08798879 -0.023952154 0.022256471 0.0758507
0.06054597 0.068403065 -0.039505795 -0.06585294 -0.05866454 -0.099755995 0.0006442401 0.025645843
0.013381417 -0.02282272 0.074600905 -0.034066 0.051731087 0.012312266 0.025005452 -0.06857232

initial.mlp.2.bias f4 [60]
00000000: d6c4 7ebb e554 c9bd 3a56 6e3d a86f 17bc
00000010: 283e 41bd 9c8f 01bd 68a3 77bd 31ad 843d
00000020: 6653 543c 24cc 9ebd 59ce f93c 95ee 2bbb
00000030: f726 8fbd 4b23 693d 8ed4 073d 0e4b 8b3c
00000040: 407a 173d 3656 a33d 11ea c3bb 1ba1 af3c
00000050: 31e6 963d 0743 5dbb 007a ebbc ff47 10bd
00000060: 5f03 9a3c e163 163d 51bf 0ebd 01b1 333d
00000070: 09a7 bf3d 4ea7 903d 901e f33c 9925 8f3d
00000080: b86b 96bc 279f a83d afc7 a7bd 3762 fcbc
00000090: bb64 05bd d213 043c 84ca 6ebd 12d2 2d3b
000000a0: e5fc a7bd ffb0 27bc c66b 4f3c 271d 973d
000000b0: 4290 2bbd e122 43bc dc92 8f3d 3475 4fbc
000000c0: 674f d8bd 02d1 5bbd 2cd6 823d 6e38 b2bc
000000d0: e74d 78bd 54bb 66bd a63b cc3c 433d a03d
000000e0: 5805 5bbd 6fc2 eebc e936 97bd 463a 88bd
-0.0038874648 -0.098306455 0.0581877 -0.0092429295 -0.047178417 -0.031631097 -0.06045857 0.06478346
0.012959337 -0.077537805 0.030493902 -0.0026234735 -0.06989854 0.056918424 0.033161692 0.017003562
0.03698182 0.07975428 -0.0059788306 0.021439126 0.07368124 -0.0033761875 -0.028744698 -0.03522491
0.018800436 0.036716346 -0.034850422 0.043869976 0.09358031 0.07063161 0.02967766 0.06989593
-0.018361911 0.08233481 -0.081923835 -0.030808551 -0.032566767 0.008061366 -0.058298603 0.0026522917
-0.08202533 -0.01023507 0.0126599725 0.07378607 -0.04188562 -0.011910171 0.07010433 -0.012662221
-0.1056202 -0.053666122 0.06388506 -0.021755423 -0.06062117 -0.056330994 0.024930786 0.07824185
-0.053471893 -0.029145448 -0.0738352 -0.0665174

initial.phi.0.weight f4 [100, 60]
00000000: fd5b c53d 75d1 a8bd 3733 efbc 9dff 5e3d
00000010: 4055 b6bc 5c2d 19bd 75e9 0e3c 2d7e cf3d
00000020: 3501 42bd e23a 823d c3e4 2c3d a12b a0bd
00000030: f67e 2e3d 2fff 8a3d 8245 1cbd 5a14 a03a
00000040: f6c2 bb3b 8bd9 a23d d505 dd3d 8bc4 90bd
00000050: 339a 1f3d 7615 073e cd81 a93d be02 b23d
00000060: a41c 65bc 7694 233d 1dc4 ea3c b0f0 25bd
00000070: 431e bebd bb0a 243c b043 89bd 2110 79bc
00000080: a4b0 c2bd 4d96 58bc 05b6 95bc 080e 81bd
00000090: e7c9 a1bd 5487 6339 1c25 80bd 26f4 1e3d
000000a0: 7f6e 8a3d 8946 c1bb 9de1 f43d 80a6 ea3d
000000b0: 56f3 b13d 4017 27bc 1884 003e 33e9 c0bd
000000c0: 847c c9bc 20fb 02be bfce e1bd 0fc8 37bb
000000d0: 3ce4 f33d 5075 ad3c f868 a8bd 2876 d43d
000000e0: cb1f 5abd 9b6a d23d 9bd9 70bd 7601 df3c
000000f0: 4eb7 153d 346e be3d b22e fb3d a74e a03c
00000100: 2d46 0fbe 48c5 873d f9c2 a03c bf9f e23d
00000110: f31e 8cbd 3c5e b93d 3b57 5fbd 0d8a bfbd
00000120: 7700 b73d 61bc edbd 9682 4fbc 09a6 f5bd
00000130: 2f83 d43c b24c fa3c 3ca2 c63d e1ed 13bc
00000140: d27c 023e 1059 54bd 884a 983d e5f5 0ebd
00000150: 4951 83bd 8862 f43c 5e00 b33d f9f0 cc3d
00000160: f54b 07be ef86 dbbd 7b3c 02be 8360 48bd
00000170: 9e7e 6fbd d9e0 7b3c 8448 e83d b5a9 2f3d
00000180: 5b5b dcbd 3778 3f3d 5e52 f6bd e5b4 8dbc
00000190: 1c08 39bd 177c bebd d9d6 3dbd d004 693d
000001a0: f401 d93d 95ec 043e 063d 243d 05e6 ff3d
000001b0: f52e 543c d937 d93d 2759 943d 33fb 42be
000001c0: eeab 8a3d b9c9 013e fe98 c53d d5a3 aa3c
000001d0: e7f7 0c3d ce66 ee3d dd8f dbbd 32e8 02bd
000001e0: c9e2 03be e52c bbbd 1c77 d6bd d063 2e3e
000001f0: 53be e03c 8644 8cb9 4b60 863d 3a10 9e3d
00000200: 7c7e 42bd 8d2b 47bd 6015 10be 9846 9f3d
00000210: 17d4 56bd 2aec 03be 67ed 16be 615c d4bd
00000220: d266 cf3c 48b1 e43d a42f b83d 74ed 183c
00000230: 0e2b 52bc 6dd1 8dbd 46c4 11be bfcb 03bd
00000240: 8cd8 1bbd 095f 49bd fa06 34bb bfb3 3fbd
00000250: 3276 923d c0e7 af3b c7c6 813d 9966 033d
00000260: 3b9f 76bd 7711 6f3c f208 86bd 0143 b4bd
00000270: a7a7 55bd 6430 33bd 1262 dd3d c85b e2ba
00000280: bb87 90bd 3e22 e5bd 8f17 063e d631 2b3d
00000290: b45d 01bd 3f93 fabd 0bfd 613d d5fc 57bd
000002a0: b8f4 993c 0613 133d 7ed4 fabc 738e 01bd
000002b0: aca1 7dbd c19d 51bc 69a2 5dbd 9579 313d
000002c0: fb3b 903d 83b0 ecbd 0965 1d3e 8ffd a6bd
000002d0: 4b89 f2bd 9d2c f7bd 65a2 e03b 74b4 d63d
000002e0: 3dc6 e63d 50d9 6f3d ec35 c6bd 733a ccbc
000002f0: fe49 cc3d d06d 5e3c e3ec b23d 77b7 003d
00000300: f71d d13d dce1 1c3c af48 2dbe 1373 71bd
00000310: ead9 09be 704c 81bd b0f7 d83d 6550 c9bd
00000320: cd45 acba 13af 89ba 2eb9 61bd 1e42 82bd
00000330: 3059 673d b6e3 d63c b6a4 cfbd de8c e63d
00000340: d271 07be 3778 f8bd bc69 9dbc cc5f 04bc
00000350: 78ff ec3d 97ba c4bc 9839 f63c c2cf d5bd
00000360: 6990 e7bd 9286 0d3b 91d0 d43d 62c0 8a3d
00000370: 9cc2 1f3d b660 71bc e532 c3bd 0a0e c3bd
00000380: 4894 87bd 5b9c da3d 28c6 0bbe a746 88bd
00000390: 1f8e a73d 4500 87ba 707d 003e 5980 1bbd
000003a0: 1a53 6b3b 04cb 163e de7d a5bd cfe5 ed3d
000003b0: 6f9d 01be 0db5 dbbd 3e9c 223d b76f ebbd
000003c0: 2f17 33bc b905 e8bd 1443 9c3c f551 503d
000003d0: fae0 363d 5fa9 45bc e418 b0bd 210c 013e
000003e0: 943a 733d 0c78 f6bd 147d ef3d b33d d4bd
000003f0: 3bcd f0bd 8f1b cb3c e945 41be 15a0 fe3d
0.09636686 -0.08243076 -0.029199226 0.05444299 -0.022257447 -0.037396774 0.008722653 0.10131488
-0.047364432 0.06358887 0.04221035 -0.078208216 0.042601548 0.06786954 -0.038152225 0.0012213096
0.0057300283 0.07951649 0.10792128 -0.070687376 0.038965415 0.1319178 0.08276711 0.08691929
-0.013983879 0.039936505 0.028657967 -0.04051274 -0.09283116 0.010012324 -0.067023635 -0.015201599
-0.09506348 -0.013219428 -0.01827527 -0.063015044 -0.07899838 0.0002169882 -0.06257078 0.038807057
0.06759357 -0.005898301 0.11957095 0.114575386 0.08688991 -0.010198414 0.1255039 -0.09419479
-0.024595506 -0.12791109 -0.11025762 -0.0028042828 0.119087666 0.021174103 -0.08223146 0.10374099
-0.053252976 0.1027424 -0.058801275 0.027222376 0.036551766 0.09298363 0.12264766 0.019568754
-0.13991614 0.06629425 0.01962422 0.110656254 -0.068418406 0.09051177 -0.05452655 -0.09352503
0.089356355 -0.11608196 -0.012665411 -0.11994559 0.02594146 0.03055415 0.096989125 -0.009028883
0.12742928 -0.05184275 0.07436091 -0.034902472 -0.06411988 0.02983214 0.087403044 0.100068994
-0.13212569 -0.10719096 -0.12718384 -0.048920166 -0.05847036 0.015373432 0.11341956 0.042886455
-0.10759612 0.046745505 -0.12027429 -0.017298171 -0.04517375 -0.09301012 -0.046347473 0.056889355
0.10596076 0.12980874 0.04009726 0.124950446 0.012950649 0.10606355 0.07243567 -0.19041137
0.06771074 0.12674607 0.096483216 0.020830074 0.034416106 0.11640702 -0.10720799 -0.03195972
-0.1287948 -0.09139422 -0.10471937 0.17030263 0.027434504 -0.00026753935 0.06561335 0.07717939
-0.047483906 -0.048625518 -0.14070654 0.077771366 -0.05244836 -0.12883058 -0.14739 -0.103691824
0.025317583 0.11166626 0.08993462 0.009333957 -0.012827648 -0.069247104 -0.14235029 -0.03217673
-0.038048312 -0.0491629 -0.0027469979 -0.04680228 0.0715145 0.005368203 0.06336742 0.032080267
-0.060210448 0.014591566 -0.06544675 -0.088018425 -0.05216184 -0.04374732 0.10809721 -0.0017269785
-0.070571385 -0.11188172 0.13094924 0.041795574 -0.031583503 -0.12235116 0.05517296 -0.052731354
0.018793449 0.035906814 -0.030618902 -0.03162999 -0.06192176 -0.012793959 -0.054109965 0.04332884
0.0704269 -0.115571044 0.15370573 -0.08153831 -0.11842593 -0.12069056 0.0068552964 0.104836375
0.1126828 0.058556855 -0.096782535 -0.024930215 0.099750504 0.013575986 0.08736589 0.031424966
0.102107935 0.009575333 -0.16922258 -0.058947634 -0.13462034 -0.063134074 0.10594118 -0.09829787
-0.0013143361 -0.0010504447 -0.05510824 -0.06360267 0.05648154 0.026231628 -0.10138838 0.11257337
-0.13227013 -0.12132304 -0.019215457 -0.00807948 0.11572164 -0.024014754 0.03005676 -0.10440017
-0.11306841 0.0021595103 0.103913434 0.06774975 0.039003953 -0.01473253 -0.09531192 -0.09524162
-0.06620079 0.10674354 -0.1364981 -0.06654101 0.08181404 -0.0010299763 0.1254785 -0.0379642
0.0035907687 0.14725882 -0.08080648 0.11616098 -0.12657712 -0.10727892 0.039699785 -0.11495917
-0.01093082 -0.113292165 0.019074954 0.05085941 0.044648148 -0.012064307 -0.085984975 0.12602283
0.059382036 -0.12034616 0.11693779 -0.10363331 -0.117578946 0.024793414 -0.18874325 0.12432877

initial.phi.0.bias f4 [100]
00000000: 0396 8a3d 58c8 84bd b262 a83c fae8 edbd
00000010: 3906 0d3d 2be8 71bd 89b7 e83c f3cb e83d
00000020: 6210 a3bc 4ce4 e6ba 517f 82bd 2a02 79bd
00000030: f595 ec3d 06c2 aabd f3a0 09bb 7160 11bc
00000040: 3935 29be 3bea 013d 1a58 cf3d 9da6 7fbd
00000050: b036 853d 3a95 48bd af77 aabd e777 363c
00000060: 8a66 7d3c b27b c6bb 9171 35be 3e1a 85bd
00000070: bbd9 493c da93 043e 929f 163e cb28 523e
00000080: 506b 333e b5d1 8fbd 815b 5c3b 0662 5abc
00000090: 7c26 2bbd 7734 9d3d 0902 0ebd d4a7 18be
000000a0: 18ec 283d ede6 26bd 3105 d8bd fecd da3c
000000b0: aea3 773d 3c15 a4bd 3df2 823e 3dbe ea3d
000000c0: afe6 d53d 654b 2e3e 7d99 563e af09 b2bd
000000d0: ffd2 87bd 1676 fbbd 7cbc 6bbd d9b1 75bd
000000e0: baa0 31bd 68d8 e0bd ab6e b03d 376f 593d
000000f0: 1fb9 71bd 2590 febc 2b8e 71bc a303 21bd
00000100: 52a3 bfbc 8bc6 02be 37a6 7c3d b09a 0a3d
00000110: 3192 4c3e 40c0 303e 2343 bb3b 2ad5 bb3d
00000120: 3a0b a23d d087 6e3e 99b0 e53d 1816 91bb
00000130: a6ed 3ebd 8824 adbd 7bed 01bd 8bfd 143e
00000140: 6e28 20bd 9294 8f3d 8db6 123e db78 f23d
00000150: 7f87 6dbd ec56 fe3d e3f9 d8bc 3d32 b1bd
00000160: aba3 a8bd de67 383e dcf8 843d dede a23d
00000170: 876e b4bd 5d8a 093c 2401 51bd 794f cabd
00000180: 73b2 13bd 3ab0 3ebd eb1b cabd 3c55 973d
0.06766894 -0.06483525 0.020554874 -0.116167024 0.034429763 -0.059059303 0.028407829 0.11367025
-0.019905273 -0.0017615645 -0.0637194 -0.06079308 0.115520395 -0.08337788 -0.0021000474 -0.008873091
-0.16524209 0.03171752 0.10124226 -0.062414754 0.065045714 -0.04897044 -0.08323609 0.011136985
0.015466342 -0.006057226 -0.17719103 -0.06499146 0.012319977 0.12947026 0.14709309 0.20523374
0.17521405 -0.0702242 0.0033623877 -0.013329035 -0.04178475 0.076760225 -0.03466991 -0.14907771
0.04124078 -0.04074757 -0.10547865 0.026709553 0.06045883 -0.08011863 0.25575438 0.11462066
0.1044439 0.17020948 0.20956989 -0.08693253 -0.06632041 -0.122783825 -0.0575528 -0.059984062
-0.04336617 -0.10978776 0.08614858 0.05308458 -0.059014436 -0.031074593 -0.014743368 -0.03931011
-0.023393307 -0.1277105 0.061681952 0.033838928 0.19977643 0.17260838 0.0057147904 0.09171517
0.079122975 0.23293996 0.11215324 -0.0044276826 -0.046613358 -0.084542334 -0.03172062 0.14549844
-0.039101057 0.070107594 0.1432745 0.118394576 -0.057990547 0.12418923 -0.026486343 -0.0865216
-0.08234342 0.18008372 0.06492779 0.07952665 -0.08810144 0.008394805 -0.05102648 -0.098784395
-0.036058854 -0.04655478 -0.09868606 0.07389304

initial.phi.2.weight f4 [100, 100]
00000000: 2115 b1bd ee0b 0ebd f26b a2bd 3cff fc3c
00000010: 3cc1 b2bd 349e 0e3d d719 bd3c e74f 123d
00000020: d3f0 063d a4d0 ec3c 17b4 ee3d f7f4 6c3d
00000030: 4427 75bd 31b0 41bc 45e6 623d 8131 943d
00000040: bab2 993c e6f0 ac3d e1bc 32bd 15a9 893d
00000050: 5d8b 73bd 0c25 0bbd 0cb3 07bd 54ca 58bd
00000060: 1c5e b23d 93c4 6c3d c07b 0dbd b7e0 adbc
00000070: 8996 1cbd cb16 9f3c 5861 c63b cb69 c3bd
00000080: 432b 8c3d 345d 96bd 375c 5e3d 3ab9 81bd
00000090: 19eb 68bc 1eb5 4d3d 7ce5 8d3d ee75 8d3d
000000a0: 40f0 acbd 0252 5e3d 5ee8 efbc 80d7 ac3d
000000b0: 19ce b63d ac4a f4bd ab28 2f3e 3736 98ba
000000c0: 5616 ba3c 1a04 9f3d 1f06 3e3b 06aa 9b3c
000000d0: a178 4f3d a820 523d a13a 4f3d ca97 ab3d
000000e0: ab69 c13d 7d5e 9fb9 ac0b 0f3d 30e6 28bd
000000f0: cd5f a9bd f896 103d fb0b 84bc 08a0 373c
00000100: e48d 55bb 4fc5 a1bd ee28 b0bd 12c1 97bd
00000110: 3663 dcbb c2ec 90bd 1fd6 113d 5204 c43c
00000120: 9732 cf3d 36a2 9ebc 0b73 8a3d f6d5 c03d
00000130: 86d1 b63c eb5a 1e3d c61c a63d 45eb 0bbe
00000140: 2b4b 683c 26b7 d83c 8c73 a53d 1172 32bc
00000150: 4ada fb3c 4994 68bd 040e e43d 2322 6abc
00000160: 2acf 373d dd83 323d 7c81 0c3d 57e7 6bbc
00000170: adcd 273d 324d 8fbd 9a5d bb3d 8e54 38ba
00000180: 2059 b23d 0011 f63c 8190 9fbc 6327 c13d
00000190: 2280 bc3d dbb3 f0bc 93af b5bd 65cf dbbc
000001a0: 1b2e c33d ce28 69bd 81be 2abb f464 713d
000001b0: 762d 603d 54bd fe3b efda 8fbd ce66 bdbd
000001c0: 8985 583d a5c9 523d eb59 c8bc c2e7 c6bb
000001d0: 920b c6bb 9c31 bd3d f92a 72bd 8191 91bd
000001e0: 9861 173d dad0 dc3b b320 ddbd f2ab 223c
000001f0: adde a13c df7e a7ba c450 25bd b6c5 c4bb
00000200: 8cbf 893d 7cba 493d ccbb c8bd 3f50 6fbc
00000210: dd31 3d3d bfc1 9a3d 899e db3c 928e fabc
00000220: 30fa 7a3c 0d27 a33b 7524 84bc 1420 183b
00000230: dfa3 a6bd cf8e f8bb 405a afbd d29a 7fbd
00000240: 5c26 c63d 31af bebb 144b 783d c23e 5f3d
00000250: 4723 853d 472b a03c d0cf 79bd 28ec 193d
00000260: 6b7e 7fbc fcb1 63bd 92cb 7abd cd6e a1bd
00000270: d752 c9bd 8233 86bd 78d3 c53d 354b 27bd
00000280: c749 93bd b040 ae3d a936 60bd f858 81bd
00000290: 6641 b13d dfb2 77bc 1352 733d 672c 163c
000002a0: f859 4cbd 9dcb 30bd 6adb 00bd bcf3 c0bc
000002b0: 00bc fe3b a86d bc3d 7b26 7abd f680 bcbb
000002c0: 2db3 b63c 106c 113c 8b53 623d 1a04 0cbd
000002d0: c7d8 87bd 6687 2e3d 54e0 4bbd 039e d9ba
000002e0: f8b1 bf3d af72 aebd a7f7 7c3a dc9f 8c3b
000002f0: a521 38bd 309f 8c3d 4f1a 923d 9c47 4d3d
00000300: 6c61 703c c617 c4bc 3a38 bcbc f893 bd3d
00000310: dede cd3d 336b ecbc 068f b3bd 091e 7abd
00000320: 5505 debd 9bd5 b8bc 3e76 9ebc ca92 4f3d
00000330: ef9d 16bd a8bc fd3d 31a5 9ebc b6c5 ccbb
00000340: 0de7 853d f0f8 eebc 4b0a 15ba ded4 4f3c
00000350: 0d84 b93d 7209 d23d 30c6 ddbb af2b 063e
00000360: 8505 e23c 81af a73d 9a5f 893d 2fd4 063d
00000370: b365 c3bd 468b d53c 9366 4dbd e441 c8bc
00000380: 6437 cd3d 72d0 4c3d cea4 17bd 6500 563c
00000390: 9d57 41bd 4f95 033e 4c67 efbc 9a7d c8bc
000003a0: 8d56 95bd b594 943d 7804 afbd 85f5 c03c
000003b0: 9746 603c 9023 db3d 3a05 6b3d e883 9fbc
000003c0: dda8 98bd 3fc8 afbd 9ba0 843b 5b84 073d
000003d0: 07dc cebd 9156 f7bc dbca 083e 6443 853d
000003e0: 62c1 6bbc 14fd 15bd e375 ad3d d6f8 d23d
000003f0: 3388 4b3d 619a 19bd f2d9 4c3d bc82 d93b
-0.08646608 -0.034679346 -0.07930745 0.030883424 -0.08728263 0.034818843 0.02308361 0.035720732
0.03294451 0.028908081 0.11655443 0.057850804 -0.0598519 -0.011821792 0.055395383 0.072360046
0.018761981 0.08444385 -0.04363716 0.06721703 -0.05945908 -0.033970878 -0.033129737 -0.05292733
0.08709356 0.057804655 -0.034541845 -0.021225316 -0.0382295 0.019420048 0.0060540847 -0.09541663
0.06844189 -0.07341996 0.05428716 -0.06334157 -0.014216208 0.050221555 0.06928536 0.06907259
-0.084442616 0.054277427 -0.029285606 0.08439541 0.08926029 -0.11928305 0.17105357 -0.0011612837
0.022715729 0.07764454 0.0028995348 0.019001972 0.05065215 0.051300675 0.050593022 0.08378561
0.09443983 -0.00030397243 0.03492324 -0.04123515 -0.08270226 0.035300225 -0.016118994 0.011207588
-0.0032585794 -0.07898962 -0.08601557 -0.07409872 -0.006725694 -0.07076408 0.035604592 0.023927841
0.10117071 -0.019364458 0.06760224 0.0941581 0.022316705 0.038660925 0.08110957 -0.13663967
0.014178078 0.02645452 0.080786794 -0.010891453 0.030743737 -0.05678204 0.11135486 -0.014290365
0.0448753 0.043582786 0.034303173 -0.014398417 0.040967632 -0.06997146 0.091487125 -0.00070316426
0.087084055 0.030037403 -0.019478085 0.094313405 0.09204127 -0.029382637 -0.08871379 -0.026832292
0.09530278 -0.05692368 -0.002605349 0.058934167 0.054730855 0.0077740345 -0.0702418 -0.09248124
0.052861724 0.051461834 -0.024456939 -0.006070108 -0.0060438598 0.09237978 -0.059123013 -0.07107831
0.036958307 0.0067387642 -0.107972525 0.00992869 0.0197595 -0.0012778899 -0.040360227 -0.0060050143
0.06725988 0.04925011 -0.098014444 -0.0146065345 0.04619013 0.075564854 0.026808994 -0.030585561
0.015318438 0.0049790205 -0.016130665 0.002321248 -0.08136725 -0.0075853835 -0.08562136 -0.062403508
0.09675285 -0.0058192243 0.060618475 0.05450321 0.06500869 0.019551886 -0.0609892 0.03757873
-0.015594105 -0.05558966 -0.061229296 -0.07882462 -0.098302536 -0.06552793 0.09659475 -0.040843207
-0.07191806 0.08508432 -0.054739628 -0.063157976 0.08655052 -0.01511833 0.059404444 0.00916586
-0.04989049 -0.04316293 -0.03145925 -0.023553722 0.007773876 0.09200603 -0.061071854 -0.005752678
0.022302235 0.008875862 0.055255454 -0.0341836 -0.06633144 0.042609595 -0.049774483 -0.0016602877
0.09360117 -0.08517968 0.000964994 0.0042915177 -0.04495396 0.068663 0.07133924 0.05011712
0.014671665 -0.023937117 -0.02297603 0.092567384 0.10052274 -0.02885971 -0.08767514 -0.0610638
-0.10840861 -0.022562793 -0.019343492 0.0506771 -0.03677171 0.12389499 -0.019365879 -0.006249155
0.0653821 -0.029171437 -0.00056854327 0.012685029 0.0905839 0.10255708 -0.0067680106 0.13102601
0.027590523 0.081877716 0.06707688 0.032917198 -0.09540882 0.026067387 -0.05014665 -0.024445482
0.100203305 0.050003476 -0.037022404 0.0130616175 -0.047202695 0.12849925 -0.02922406 -0.024473954
-0.07291899 0.07254926 -0.08545774 0.023554573 0.013688705 0.107001424 0.05737803 -0.019472077
-0.07454083 -0.08583116 0.004047466 0.03308521 -0.10100561 -0.030192645 0.13358633 0.06506994
-0.014389368 -0.036618307 0.08469751 0.10301368 0.049690437 -0.037500743 0.050012536 0.006637899

initial.phi.2.bias f4 [100]
00000000: 3676 65bd d6b2 b33d ac14 b13d 637d 623e
00000010: 5c8e 4cbc abdf 04be 0381 5c3e ea07 ca3a
00000020: 8a7b dfba 6b50 613c 6a19 4d3e e0cc 013e
00000030: 33ec 453c 57e1 0e3d 6fb9 ddba 957a 0bbd
00000040: 5a35 b23d e73f 5fbc 7f6d b0bb a8fb ec3d
00000050: 95eb 1a3e c6d6 2fbd 46a1 343d 7e9b 783d
00000060: 4d4c 45be 8b24 213e 442a f5bc d6b8 193c
00000070: 3ad9 eebc a8a0 933d 1af0 e5bc fbcf ee3b
00000080: 2649 933d 1216 14bd e040 a33b f3ff 453e
00000090: d2d9 543e d5e1 153e f01f 133e e236 6dbd
000000a0: 1a28 b43a d4d2 5bbd 1113 bd3c cdbf 983d
000000b0: 05fa 153d 7bd4 843d 94d9 e63d bb16 43bd
000000c0: 618b 7e3d 092d 5d3e 9c0b 44bd 23be f23c
000000d0: 2a14 d1bc 15a8 30bd 1a2f aebc 4a82 dc3d
000000e0: 1e43 d2bd f4eb 27be 2c67 5d3d dad7 8e3d
000000f0: ab67 cfbd 63ac 083e 84dc 413e fbfb 1dbc
00000100: ba51 39be de69 02bd 5ffe dc3b e8f5 80bd
00000110: 4878 a0bd 60ae 32bc 705b 473d 1ee5 c7bc
00000120: 2cde 8dbc 5e75 783d 1004 fa3d 5f0f a73c
00000130: 1f96 ed3c 8fad c33c 1984 c83d 3bc5 0fbc
00000140: 0ec1 b73d e6c9 fb3d 9f8f 3dbc 250e babd
00000150: 71b9 e73c 5f8f 3e3e 244b 593d 0c50 c8bd
00000160: f676 9ebb 7dd0 f0bc 93c1 813d d8cb 85bd
00000170: afc8 b8bd c87b c63c c7cb 803d 75fe 40be
00000180: b68c 89bc b8b8 ae3d fc9c d53c 6b6f 0dbd
-0.056020938 0.087743446 0.08646521 0.22118144 -0.012485113 -0.12975948 0.21533589 0.0015413736
-0.0017050367 0.013752083 0.20029226 0.1267581 0.01208024 0.03488287 -0.0016916225 -0.03405245
0.08701582 -0.013626075 -0.0053841467 0.11571437 0.1512893 -0.042929433 0.044099115 0.060695164
-0.19267388 0.15736596 -0.02992738 0.009382447 -0.029156316 0.07208377 -0.02806859 0.007287977
0.07191686 -0.03615386 0.004982099 0.19335918 0.20786217 0.1463693 0.14367652 -0.05791367
0.0013744861 -0.05366786 0.02308038 0.07458458 0.03661539 0.0648584 0.112719685 -0.0476291
0.06214464 0.21599211 -0.047862634 0.02963168 -0.02552231 -0.043129046 -0.021262694 0.10767038
-0.10266708 -0.16398603 0.05405347 0.06974764 -0.10127195 0.1334701 0.18931776 -0.009642596
-0.18097582 -0.031839244 0.0067441906 -0.06296903 -0.07835442 -0.010905832 0.048671186 -0.024401244
-0.017317854 0.060658805 0.12207806 0.020393072 0.029002247 0.02388647 0.09790821 -0.008775051
0.08972369 0.122943684 -0.0115698865 -0.09084729 0.028286668 0.18609379 0.053050175 -0.09780893
-0.0048359586 -0.02939629 0.063357495 -0.06533021 -0.09022652 0.024228945 0.062888674 -0.18847068
-0.016790729 0.08531326 0.026075833 -0.034530085

initial.phi.4.weight f4 [100, 100]
00000000: 8b0e d63b 8a9c b0bd 3b6a 3f3d ab66 003e
00000010: 30ce 3f3d 89f9 8d3c d6da 4f3d 0ab5 ca3d
00000020: 1448 d73d f9a8 42bd 288c e0bd e094 323c
00000030: 05cc d23a 927e 08be 8575 263d 52e0 3d3c
00000040: 3f49 0a3d 1b09 873c 310f 91b9 b2f6 df3d
00000050: 17c9 9c3d ff6b ae3c 3d79 91bd e31a 393c
00000060: 96a4 4a3c f164 ce3d 8cd3 913c 0efb 50bd
00000070: 6da9 8bbd 587f 643d 7312 99bd cb8e dcbd
00000080: 6f7b a23d fd08 5bbd 37f6 87bd b1c9 893d
00000090: ba26 953d 57cf 2d3c 8a15 1a3d 990d dc3c
000000a0: eaa3 e43b 1200 e639 4e70 20bc 9864 913d
000000b0: 86d3 a2bc 0296 2abd e06c 183e 70a1 1cbd
000000c0: 19c0 ab3d 9c1e 1f3e 0ddb e4bd fffd 9ebd
000000d0: 3168 20be 1621 25bd d6b7 783c 48dc 913d
000000e0: 9903 35bd 5225 363d 6dbd 8f3d 545d 7cba
000000f0: 9a1f 8a3c 1294 973d 3259 8f3d 6efb 58bd
00000100: a790 c53d b9a0 93bd 9f8e 20bd f078 5cbd
00000110: ba82 513d 02ed ef3d 19cb b0bb 15b7 2d3d
00000120: a016 f03c 8cf5 8ebd 3056 a03d 3cfe d03d
00000130: a759 c23d f666 bd3d aa53 e03c 27f6 f93d
00000140: f2c1 61bc 84e4 b9bc 4ef3 09bd 16a8 943c
00000150: 3e4c aebd abfb 163e 0d3c 1b3c 94c4 95bd
00000160: 48e7 843d 7e40 423d d47b febc 3c3d 9bbd
00000170: 25ca 1abd 0dff f63d 567f a2bc aa72 99bd
00000180: aca7 033e 1ef1 553d 5b28 00bc 5ca5 da3d
00000190: 3be2 1a3d 2683 b0bc 5fed 733d 5a09 563d
000001a0: 9315 f43c 2a39 33bd 12b8 a7bd c14e bf3c
000001b0: d8d6 e63c 46a5 523d 02b0 7cbd 47ae abbd
000001c0: b931 7dbd 4460 dfbc a38e efbc df00 02bd
000001d0: d196 b0bd 3854 af3d c5c1 5ebd 51fb 4cbd
000001e0: eba4 4f3d b3a2 6c3a d7ea 09bd e9ed be3d
000001f0: ffc3 cdbd baad b13d c574 c6bd 98b3 39bd
00000200: 1134 8abd 8e51 1d3d 452f aa3d 9cf5 93bd
00000210: f7af 60bd 8234 383d b25c 9a3d 9a09 1bbd
00000220: a944 66bd 585e 9bbd 5b9a b03d fc01 6fbd
00000230: 3765 b03d 5f50 e03b 5436 46bd 9ac6 48bc
00000240: a941 1ebd e748 1fbc e06a dd3d 2c45 bc3d
00000250: 5984 033e 0ff5 423d e16e e7bd 7666 80bd
00000260: d1de 983d ed6b 8dbd 9dec b1bc c405 8abb
00000270: 6e27 8bba 72cc 893d 644b 333c 0ad3 a63d
00000280: f4f5 813d 7778 c4bd 8374 febc 6612 6fbd
00000290: 1317 49bc f8ff 2dbd 564a c0bd 1b0b 25bd
000002a0: 3523 35bc 1647 6a3d a2b6 cbbd 9bdd 4fbb
000002b0: 5d62 e13d e518 543d 0f90 84bd 676e 513d
000002c0: 70fa 12bd 70e7 a53d 224c e1bc 157d c1bd
000002d0: ef89 3abd efe2 22bd 0b07 d93c f34b 94bd
000002e0: de97 803d 50cc 9ebd fdb5 c73c 37c7 ba3d
000002f0: ad7a c4bd 66b7 993c dc55 673c 9b4c 9dbd
00000300: 207e 09bd 7b76 b23c 5ce6 02bc d1b5 9f3d
00000310: 2976 2f3b 42d4 91bd af40 05bb 6c48 233c
00000320: 1a21 193d 91a2 79bd b67e 0d3d 124d 3d3d
00000330: 631e 803d 0273 863c dc14 1dbc 11f7 953d
00000340: 75dd 8dbd da3d 61bd 2aab 4a3a 0b9b 633d
00000350: 1c66 a2bd 451c 7dbd d9e9 0cbd af2f c83d
00000360: d359 62bc e30d f7b9 e6e9 42bd 1076 0e3c
00000370: 6a1c 233d e438 ab3d 1b47 883c ea07 c63d
00000380: cfba 07be a87e eb3c 58b7 833c f809 893b
00000390: 4848 babd 4e83 7c3d 29d8 39bd c791 a73d
000003a0: a8cf 903d fccd 2f3d 6055 743d 0e68 75bd
000003b0: d9dd 6f3d 344b 51bc 5088 e8bc 787e e2bb
000003c0: 7255 b1bd d820 713c f186 70bd 506d 523d
000003d0: 99ea 82bd 181d ab3d 1a79 0fbd c8d3 e13c
000003e0: 3fd9 b13d 927e cdbc 6914 a1bc 4346 c53d
000003f0: 1c05 38bd 9dff b03d 5c62 aa3d bccd 9c3a
0.0065324954 -0.086236075 0.04673217 0.12539165 0.046827495 0.017330902 0.050745808 0.09897812
0.10511795 -0.047524426 -0.10964233 0.010899752 0.0016082531 -0.13329533 0.04063942 0.011589127
0.03376126 0.016483834 -0.00027667874 0.10935725 0.07655542 0.02129173 -0.071032025 0.011297914
0.012368342 0.10077847 0.017801069 -0.051020674 -0.06819425 0.055785507 -0.07474222 -0.10769423
0.07933699 -0.05347537 -0.06638759 0.06727923 0.07282777 0.010608516 0.037618198 0.026861953
0.006977548 0.0004386907 -0.0097924005 0.07099265 -0.019876253 -0.041646965 0.14885283 -0.038239896
0.08386249 0.1553902 -0.11174593 -0.0776329 -0.15664746 -0.040314756 0.015180549 0.071220934
-0.044192884 0.044469185 0.07018552 -0.0009626944 0.016860772 0.07401289 0.069994345 -0.052974157
0.09646731 -0.0720839 -0.039198514 -0.053826272 0.05115006 0.117151275 -0.005395305 0.04241093
0.029307663 -0.06980428 0.07828939 0.10204741 0.09489756 0.09248154 0.027383644 0.12205153
-0.01377915 -0.022691973 -0.0336793 0.018146556 -0.08510636 0.14744441 0.009474766 -0.07312885
0.06489426 0.047424786 -0.031064905 -0.07580039 -0.037790436 0.12060366 -0.01983611 -0.074925736
0.1285693 0.0522319 -0.0078221215 0.10676071 0.037813406 -0.021546911 0.059552547 0.052255012
0.029795444 -0.043755688 -0.081894055 0.023352982 0.028178617 0.05142715 -0.06169129 -0.0838285
-0.061814997 -0.027267583 -0.02924282 -0.031739112 -0.08622516 0.08560985 -0.05438401 -0.05004436
0.050694387 0.00090269296 -0.033671226 0.093227215 -0.10047149 0.08675714 -0.09690241 -0.04533729
-0.06748212 0.038407855 0.08309797 -0.07224581 -0.054855313 0.04497195 0.075372115 -0.037850954
-0.056217823 -0.07586354 0.08623191 -0.0583515 0.08613055 0.0068455185 -0.048391655 -0.012254382
-0.038636837 -0.009721971 0.108114004 0.09192881 0.12843455 0.047596987 -0.11300445 -0.06269543
0.07464374 -0.06905351 -0.021719271 -0.004212113 -0.0010616609 0.06728448 0.0109432675 0.08145721
0.0634574 -0.09593289 -0.031061416 -0.058367155 -0.012273568 -0.04248044 -0.093891785 -0.040293794
-0.011055757 0.0571967 -0.09946944 -0.003171778 0.110050894 0.051781554 -0.064727895 0.05113068
-0.035883367 0.08100784 -0.027502123 -0.09447686 -0.0455417 -0.039767202 0.026492616 -0.07241049
0.06278966 -0.07753813 0.024378771 0.091200285 -0.09593711 0.018764209 0.014119592 -0.07680627
-0.033567548 0.021785012 -0.007989492 0.077983506 0.002677331 -0.07120563 -0.0020332744 0.009965997
0.037385084 -0.06094605 0.03454467 0.046216078 0.06255796 0.016412262 -0.009587493 0.07322515
-0.06927005 -0.054990627 0.0007731194 0.055567782 -0.07929632 -0.061794538 -0.034402702 0.0977472
-0.013815361 -0.00047121858 -0.047586344 0.0086951405 0.03982202 0.083604604 0.016635468 0.09669478
-0.13254856 0.028746918 0.016078636 0.0041820966 -0.09095818 0.06164866 -0.045372162 0.08182102
0.07070857 0.04292105 0.059651732 -0.059913687 0.05856118 -0.0127742775 -0.028385311 -0.006912049
-0.086588755 0.014717303 -0.05872244 0.05137378 -0.06392402 0.083551586 -0.0350276 0.027566805
0.086840145 -0.025084767 -0.019663053 0.09632542 -0.044926748 0.08642504 0.08319542 0.0011963169

initial.phi.4.bias f4 [100]
00000000: 7dad eb3d 313a ccbb ada2 51bb 5532 ab3c
00000010: 8f8b c53c 8ff7 debd eb52 d2bd 5485 363c
00000020: 3116 d8bd 7025 eb3d a8c4 013e e628 6cbd
00000030: cd97 90bd 4bbe 87bd 6fa5 5abd 33c4 af3b
00000040: 7321 333e 77a1 2fba d615 093e c9ab 9c3d
00000050: 4404 a93d 0f7c 103e 5007 1d3e d467 053d
00000060: eca4 b4bd 8fc6 e43d 20ef 623d 7596 023e
00000070: 51fe 6c3b 5ac3 3e3e 4401 c13d 31ae 64bd
00000080: 4d48 323c 3921 4dbd 8f52 db3d 9891 093e
00000090: 12f3 91bc c0a0 333d 40de 1a3d b353 81bd
000000a0: bcf0 50bd 0c1c 813b 41fd 92bd a795 b5bd
000000b0: bf89 033e 201a 1f3e baf8 35bd 6e01 d63d
000000c0: 03dc 833c 0012 8b3d 3def 22ba edd8 093d
000000d0: 1f27 2cbe abc1 c83d 852a f33d 41f6 fdbc
000000e0: 81b8 4b3e bfc5 8bbd 634e 0b3d ac12 44bd
000000f0: 9125 523e bc47 13bc b2cf 03bd 6a7c e2bd
00000100: 59e6 4dbd 55f4 80bd edbf a63d d9ac 8c3a
00000110: 5fad 083d 34f9 2b3e 818b 523e e401 2abc
00000120: ce2c da3c 3f46 22bd b6a4 bb3d 3d40 a43a
00000130: 8988 08be 7fa4 283d 9ab1 da3d 345a 07be
00000140: 1485 9e3d 5a6e 7cbd e225 f9bd ac4a 60bd
00000150: 3e7f ad3b 7814 5f3d 4356 f13c 4be1 8bbc
00000160: a84f d63d ae2f a13c eb95 5b3d 6487 3c3d
00000170: 5ade 823d 7a60 b5bd 7ee0 8e3d f787 c1bc
00000180: c5f6 9fbc c083 9a3d 2df6 efbc 6b2a 3cbd
0.115077 -0.006232523 -0.0031987831 0.020898024 0.024114398 -0.10887062 -0.102697216 0.011140186
-0.10551108 0.1148175 0.12672675 -0.05765619 -0.07060204 -0.066280924 -0.053380426 0.005363965
0.17493229 -0.00066997804 0.13387236 0.07649953 0.08252767 0.14109825 0.15334821 0.03256972
-0.08820519 0.111706845 0.05540383 0.12752707 0.0036162327 0.18629208 0.094240695 -0.055830184
0.010881496 -0.05008051 0.10709106 0.13434446 -0.0178161 0.043854475 0.03780961 -0.063147925
-0.051010832 0.003940111 -0.071772106 -0.088664345 0.12845515 0.1553731 -0.044426657 0.104494914
0.01609612 0.067905426 -0.0006215459 0.033654142 -0.16811799 0.09802564 0.11873344 -0.031001212
0.19894601 -0.068248264 0.034010302 -0.04786937 0.20522143 -0.008989271 -0.032180496 -0.11058886
-0.050268505 -0.06296603 0.08142076 0.0010732665 0.033368465 0.16794282 0.20561029 -0.010376427
0.026632693 -0.039617773 0.091622755 0.0012531352 -0.13333334 0.0411725 0.10678406 -0.13218004
0.077402264 -0.061628677 -0.12165429 -0.054758713 0.0052947095 0.05446288 0.029460078 -0.017075201
0.10464412 0.019676056 0.05360977 0.046027556 0.063900664 -0.08856292 0.06976412 -0.023624403
-0.019526849 0.075446606 -0.02929219 -0.04593889

initial.phi.6.weight f4 [40, 100]
00000000: ee79 dcbd 55e3 563c 8a25 9abd b30f cabd
00000010: 9fc3 ddbd b955 aa3d e8e3 a7ba 14ec a8bd
00000020: 02f4 9abd efc6 953d bff6 5abe 07d3 65bc
00000030: dcd3 6bbd f909 ad3d 1c09 54bc 23ee 113c
00000040: 0043 9ebc b2b0 a9bc 9aaf e43d 9d64 213d
00000050: 46fa 1ebd 281a 083d 26dd 0cbe 1497 adbc
00000060: 7185 aa3d f933 c33d 9e1c 89bd 2ca7 61bd
00000070: c00d b43d 7edf bb3d 00ba 57bd a1fc d4bc
00000080: 838b 77bd 5fe7 a03d db74 8e3d fcd9 083d
00000090: 2ded ac3d b3f8 763d d8de 873d b699 7ebd
000000a0: d68a 8e3c 9de4 593d 5b06 9dbc 4419 29bd
000000b0: 9cbb 863d 3b2e d5bc c38e 05bd 519b bbbd
000000c0: ef2e f739 b554 403d 1c43 3a3d 6a0c b33d
000000d0: cce1 f2bc 29a7 a9bd 6c12 acbd d463 5d3c
000000e0: 66c1 91bd 7b65 fe3a 06cb c23c 0b3a 3fbd
000000f0: 6d06 053e f2d8 633d e798 093d dcfc aa3c
00000100: 556f f43c 1eaf 7f3d 836c 073c d54c cebd
00000110: 3337 783c 44f4 1a3d 3606 103d 20f8 b13c
00000120: c95c 523d 9516 093a fde3 5ebd 5dc5 97bd
00000130: 8b75 743d 4f5c f03c b2bb d8bd af30 0f3d
00000140: 893a a73d aad9 ae3d 6fec b53d 4a0d a33c
00000150: 3b8c 9c3d 5303 79bd e072 983d 5e76 1a3c
00000160: 2a8d 0fbc 9872 eebc 1e61 dc3c ff4d 813d
00000170: 4853 ba3d 8d3c 28bd a139 ebbc a52e a63d
00000180: 6e3b 5d3d 4eff 8a3d 41a7 483d 6120 973d
00000190: 3b1c 2fbd 7afb 963c 140b b13d 2381 863c
000001a0: 1ffa 843d 1a64 ec3a 75a8 0fbd 238d c6bd
000001b0: 7c11 65bd 696f 7a3c 94ad 7f3d 5f6e 06bd
000001c0: 4e42 98bd 8248 a23c e786 943d 9c26 793d
000001d0: 73c7 d93d 3f62 c4bd a448 32bd c7b4 6f3d
000001e0: be77 d43d 2279 1b3d 1c88 8b3d 6f20 63bd
000001f0: 6a5e 9c3d 8f1e 87bd 8f4b 8dbd 7f98 633d
00000200: 0f19 863c ce92 7c3d 2c88 293d 2b4e d3bc
00000210: a83a fb3c 7ac4 88bd aec4 d1bd afc5 fa3c
00000220: 523e 513d 89b0 d43d 910e 543c 57c6 6e3d
00000230: 5b8e 16bd 8100 4f3b 2131 ddbb ae9f 8abd
00000240: 2dd9 8f3d 8fd1 9fbd 9bb9 d23d e788 ee3b
00000250: 8536 003d e396 fe38 8efa c7bd 3bee 8a3d
00000260: c91b 373d f1a5 973d 9dd9 4f3d 932c cc3c
00000270: 427a f6bd a0b8 24bc 2e37 a83d 1037 853d
00000280: 427f 3ebc 4d4b 87bc e520 7e3c 05e4 133d
00000290: 272a 1f3d 450e 913d 9ad5 163c b175 c73d
000002a0: 3c50 1f3d 2b74 a13d 2e1c fcbd 79f1 3b3d
000002b0: 5d5c 37bd 681d 91bd 8c67 7bbc 1409 f03b
000002c0: 3a65 babd 2606 c2bd d041 2c3d c8a6 be3d
000002d0: 9d1e 27ba 55ef 88bd c218 fb3b b861 87bd
000002e0: e294 24bd 052d 86bd d27e 3e3d 0728 393d
000002f0: 3534 d43d 0ff2 d63d 6d5f c3bd 3bb4 af3c
00000300: 46e1 28bb daba f7bc bea3 9a3d 20b0 9b3d
00000310: cc21 0f3d f2aa 8a3d 7141 d13c 9b28 e3bc
00000320: 7bb8 903c 7428 8bbd 1cee 1cbd c16d 59bd
00000330: 71fa d33c d552 23bd e3e4 9f3d 0083 a03d
00000340: f474 8ebd 3829 983d c379 c7b9 5cbf 5fbd
00000350: c923 84bc f919 a8bd 4ed3 bebc f903 35bb
00000360: 6505 ebbd 1984 b2bb 597f 9cbd c563 adbc
00000370: 321b 703c dbed 3d3c 2459 0abd 7189 fcbd
00000380: 3751 0abd da35 4ebc ac73 a0bd 8df5 9a3c
00000390: 257c 613d 1e62 133d 5ec9 78ba 9691 1d3d
000003a0: e2a8 a6bd 3b32 a83c f818 783d 3450 613c
000003b0: 9c6d 8a3d 8026 a1bc ea53 49bd 3dc4 b9bc
000003c0: 0e04 3b3c 3154 063d d4e3 403d 30c8 6fbd
000003d0: 3f33 05bc 3662 00bd 00fb 9bbd 5822 1bbd
000003e0: fd7f 51bd 7843 bbbd a384 86bd 8b14 513d
000003f0: 28c9 34bd 5ef8 cebd 0f48 56bc 7502 b23c
-0.10765444 0.013115724 -0.07526691 -0.09866276 -0.108283274 0.083171315 -0.001280901 -0.08248153
-0.07566072 0.07313334 -0.21383189 -0.014027364 -0.05757509 0.08449168 -0.012941625 0.008906874
-0.019319057 -0.020714138 0.11166306 0.039402593 -0.038812898 0.03322807 -0.13756236 -0.021190204
0.08326233 0.09531397 -0.066949114 -0.05509107 0.08791685 0.09173487 -0.052667618 -0.02599937
-0.060435783 0.078566305 0.06955882 0.03341101 0.08443675 0.06029577 0.06634301 -0.06215831
0.017400187 0.05319654 -0.01916807 -0.04128386 0.065787524 -0.026023021 -0.03260685 -0.09160484
0.0004714648 0.046955783 0.045474157 0.08742602 -0.029648684 -0.082838364 -0.08401951 0.01351257
-0.07116966 0.0019408906 0.02377845 -0.046686213 0.12990732 0.055626817 0.033593085 0.020872526
0.029838243 0.062422864 0.008265617 -0.10073248 0.015149879 0.037830606 0.035162173 0.02172476
0.051358018 0.00052295 -0.054416645 -0.07410691 0.05968241 0.029340891 -0.10582675 0.034958538
0.081654616 0.0853761 0.08882987 0.019903798 0.07643934 -0.060794186 0.07443786 0.009427635
-0.0087616835 -0.029107377 0.026901778 0.06313705 0.09097916 -0.04107337 -0.028714003 0.081143655
0.054011755 0.06786977 0.04898763 0.07379223 -0.042751532 0.01843046 0.08644691 0.016418999
0.06493019 0.0018035204 -0.035072763 -0.096948884 -0.055924878 0.015285351 0.062421396 -0.0328201
-0.074345216 0.019809965 0.07252293 0.060827836 0.10633745 -0.095890515 -0.043526307 0.058522012
0.103744015 0.037957318 0.0681307 -0.055450853 0.076351956 -0.065976255 -0.06899177 0.055565353
0.01636937 0.06166344 0.04138963 -0.02579411 0.030667618 -0.066781 -0.10242592 0.030611841
0.051084824 0.10385234 0.012942926 0.05829462 -0.036756855 0.0031585994 -0.0067502414 -0.06768738
0.07023845 -0.07803642 0.10289308 0.0072795036 0.031301994 0.00012139769 -0.097645864 0.0678372
0.044704232 0.07404698 0.05074464 0.024923598 -0.120350376 -0.010053784 0.0821365 0.06504643
-0.01162702 -0.016515398 0.015510772 0.03610613 0.03885856 0.070828 0.0092062 0.09739245
0.038894877 0.078834854 -0.12310062 0.045884583 -0.04476582 -0.07085687 -0.015344512 0.007325301
-0.09101339 -0.09473829 0.04205495 0.09309155 -0.0006375106 -0.06686274 0.0076628635 -0.06610435
-0.04018105 -0.065515555 0.046507664 0.04520419 0.1036152 0.10495388 -0.095396854 0.021448245
-0.002576904 -0.030240465 0.075507626 0.076019526 0.03494434 0.067708865 0.0255439 -0.027729323
0.017666092 -0.06794825 -0.038313016 -0.053083185 0.025876256 -0.039873917 0.078073286 0.07837486
-0.06955901 0.07429737 -0.00038046957 -0.054625854 -0.016130345 -0.08208079 -0.023294117 -0.0027620776
-0.11475638 -0.005447876 -0.07641477 -0.021165738 0.014654921 0.011592354 -0.033776417 -0.12330902
-0.03376886 -0.012586081 -0.07834563 0.018915916 0.055050034 0.035982244 -0.0009490455 0.03846892
-0.081376806 0.020531764 0.060570687 0.013752032 0.067591876 -0.019671679 -0.049152292 -0.022676582
0.011414541 0.032795135 0.047092274 -0.058540523 -0.008129894 -0.03134366 -0.07616234 -0.03787455
-0.05114745 -0.09143728 -0.06568267 0.051044982 -0.04413715 -0.10105966 -0.013078704 0.021729687

initial.phi.6.bias f4 [40]
00000000: b262 133d bd85 d1bd 8d7e 2b3d 19b0 d8bd
00000010: 025f 193c 0799 d83d ddf9 8cbc 46aa f93d
00000020: 77cd 2e3d 7487 303b 7c69 0a3e 6ace 39bd
00000030: 8302 bebd bd5b d43b 425b 233d ee6f a3bc
00000040: 6d8e da3d dbd5 03bc 5077 133c 6686 0c3e
00000050: 5794 4f3d 6233 37bc 84b1 e53d 5666 8e3d
00000060: 4edc cd3c e319 eb3d 143c 393d cf44 f8bd
00000070: cc71 403d aa71 9e3d aacd 663d 54fc 163e
00000080: 031c c93d 6507 6a3d 5842 023d ffe8 bbbc
00000090: 0720 b1bb 9586 803d 583c 71bd 3946 bebd
0.035982795 -0.10230587 0.041868735 -0.10580463 0.0093610305 0.10576063 -0.017208988 0.1219068
0.042676415 0.0026936205 0.13516802 -0.045362867 -0.09277823 0.0064806626 0.039881952 -0.019950833
0.10671697 -0.008046593 0.009000614 0.13723144 0.050678577 -0.011181684 0.11215499 0.06953113
0.025129464 0.11479547 0.04522331 -0.12122499 0.046983525 0.077365234 0.05634848 0.14744693
0.09819796 0.05713596 0.03180155 -0.02293825 -0.0054054293 0.062756695 -0.05889544 -0.09290738
